Integer Only Inferencing/model.tflite (tflite, 28104 bytes, 3 tensors)

conv1d/conv1d/ExpandDims_1 u1 [1, 1, 3, 8] scale=0.007161307 zero_point=157
000000 b5 3b eb 06 1d cb db d7 ff eb d3 bf bb d5 a3 d3
       0.17187136 -0.7018081 0.55858195 -1.0813574 -0.9166473 0.32942012 0.44400105 0.4153558 0.7018081 0.55858195 0.38671058 0.24348444 0.21483922 0.4010332 0.04296784 0.38671058
000010 1e de 66 fe ef 50 00 d9
       -0.909486 0.46548498 -0.3938719 0.6946468 0.58722717 -0.5514206 -1.1243253 0.42967844

dense/weights_quant/FakeQuantWithMinMaxVars/transpose u1 [16, 1568] scale=0.004031567 zero_point=139
000000 9d 95 8c 9a 98 86 94 84 9d 95 a1 98 96 99 95 86
       0.07256821 0.04031567 0.004031567 0.0604735 0.05241037 -0.020157835 0.036284104 -0.028220968 0.07256821 0.04031567 0.08869447 0.05241037 0.044347234 0.056441937 0.04031567 -0.020157835
000010 98 98 9b 9b 93 94 8b 87 a2 8a 96 8d a5 98 8e 8b
       0.05241037 0.05241037 0.06450507 0.06450507 0.032252535 0.036284104 0.0 -0.016126268 0.09272604 -0.004031567 0.044347234 0.008063134 0.10482074 0.05241037 0.012094701 0.0
000020 b1 8d 9e 97 95 94 a0 9d a4 97 a7 a5 9a 8d 95 a8
       0.15319954 0.008063134 0.07659977 0.048378803 0.04031567 0.036284104 0.08466291 0.07256821 0.100789174 0.048378803 0.11288387 0.10482074 0.0604735 0.008063134 0.04031567 0.11691544
000030 af a3 97 92 8e 9c a8 9a 8e 87 a6 8e 95 8d a5 a2
       0.14513642 0.096757606 0.048378803 0.028220968 0.012094701 0.06853664 0.11691544 0.0604735 0.012094701 -0.016126268 0.108852305 0.012094701 0.04031567 0.008063134 0.10482074 0.09272604
000040 a1 93 8e 9c 98 9c 8c a2 a9 87 a0 9d 9c 88 96 92
       0.08869447 0.032252535 0.012094701 0.06853664 0.05241037 0.06853664 0.004031567 0.09272604 0.120947 -0.016126268 0.08466291 0.07256821 0.06853664 -0.012094701 0.044347234 0.028220968
000050 98 9e a1 93 8b a2 95 a4 a1 87 a7 8d 8d 99 8d a2
       0.05241037 0.07659977 0.08869447 0.032252535 0.0 0.09272604 0.04031567 0.100789174 0.08869447 -0.016126268 0.11288387 0.008063134 0.008063134 0.056441937 0.008063134 0.09272604
000060 93 7d 92 87 9c 99 8f 9a 9a 89 89 a0 88 8a 9d 98
       0.032252535 -0.056441937 0.028220968 -0.016126268 0.06853664 0.056441937 0.016126268 0.0604735 0.0604735 -0.008063134 -0.008063134 0.08466291 -0.012094701 -0.004031567 0.07256821 0.05241037
000070 86 8c 94 94 8e 82 99 8c 95 8f 90 9a a3 94 a5 8f
       -0.020157835 0.004031567 0.036284104 0.036284104 0.012094701 -0.036284104 0.056441937 0.004031567 0.04031567 0.016126268 0.020157835 0.0604735 0.096757606 0.036284104 0.10482074 0.016126268
000080 95 9d 9d 9f ab 99 9d a4 a9 bd a1 a0 9c 98 96 ba
       0.04031567 0.07256821 0.07256821 0.08063134 0.12901014 0.056441937 0.07256821 0.100789174 0.120947 0.20157835 0.08869447 0.08466291 0.06853664 0.05241037 0.044347234 0.18948364
000090 ba cc 8f ba b2 b1 9e b9 cc b1 b7 ba a7 b6 9a c6
       0.18948364 0.26205185 0.016126268 0.18948364 0.1572311 0.15319954 0.07659977 0.18545207 0.26205185 0.15319954 0.17738894 0.18948364 0.11288387 0.17335738 0.0604735 0.23786245
0000a0 a9 b1 a5 a9 aa bb a0 c5 9b a0 a8 9b a1 a8 9d c7
       0.120947 0.15319954 0.10482074 0.120947 0.12497857 0.19351521 0.08466291 0.23383088 0.06450507 0.08466291 0.11691544 0.06450507 0.08869447 0.11691544 0.07256821 0.241894
0000b0 b0 b6 b6 b4 a7 9d a1 c7 ac a6 ac 96 a5 b9 96 b9
       0.14916797 0.17335738 0.17335738 0.16529424 0.11288387 0.07256821 0.08869447 0.241894 0.13304171 0.108852305 0.13304171 0.044347234 0.10482074 0.18545207 0.044347234 0.18545207
0000c0 ac a2 a1 a4 a4 b7 b3 b9 a2 96 a8 9a 96 a7 92 99
       0.13304171 0.09272604 0.08869447 0.100789174 0.100789174 0.17738894 0.16126268 0.18545207 0.09272604 0.044347234 0.11691544 0.0604735 0.044347234 0.11288387 0.028220968 0.056441937
0000d0 90 8f 9f 98 9f 87 96 a0 91 99 93 9c a4 8c 8e 8d
       0.020157835 0.016126268 0.08063134 0.05241037 0.08063134 -0.016126268 0.044347234 0.08466291 0.024189401 0.056441937 0.032252535 0.06853664 0.100789174 0.004031567 0.012094701 0.008063134
0000e0 99 89 9f 89 97 87 a2 8b 9d 92 8d 8e 85 89 91 95
       0.056441937 -0.008063134 0.08063134 -0.008063134 0.048378803 -0.016126268 0.09272604 0.0 0.07256821 0.028220968 0.008063134 0.012094701 -0.024189401 -0.008063134 0.024189401 0.04031567
0000f0 91 a7 99 94 9c 89 95 a0 75 af 87 b3 9a 76 96 a5
       0.024189401 0.11288387 0.056441937 0.036284104 0.06853664 -0.008063134 0.04031567 0.08466291 -0.08869447 0.14513642 -0.016126268 0.16126268 0.0604735 -0.08466291 0.044347234 0.10482074

dense_1/weights_quant/FakeQuantWithMinMaxVars/transpose u1 [10, 16] scale=0.0055071115 zero_point=153
000000 be ba e1 bb 70 ca 55 39 bb 25 56 7a cb 4f 3f e9
       0.20376313 0.18173468 0.39651203 0.1872418 -0.22579157 0.26984847 -0.3744836 -0.5286827 0.1872418 -0.63882494 -0.36897647 -0.17072046 0.27535558 -0.40752625 -0.49564004 0.44056892
000010 3c 2e 58 70 9d c7 df c4 66 ba da a5 08 3e cd 52
       -0.5121614 -0.58926094 -0.35796225 -0.22579157 0.022028446 0.25332713 0.3854978 0.2368058 -0.2808627 0.18173468 0.35796225 0.06608534 -0.7985312 -0.50114715 0.2863698 -0.39100492
000020 b4 5b 65 ca 4f 49 5f 8f fc a7 b9 b5 54 23 de 79
       0.14869201 -0.34144092 -0.2863698 0.26984847 -0.40752625 -0.44056892 -0.31941247 -0.055071115 0.54520404 0.07709956 0.17622757 0.15419912 -0.3799907 -0.64983916 0.3799907 -0.17622757
000030 d5 d9 21 c3 7b f1 5e d6 42 a9 63 4f 80 53 5f 7e
       0.3304267 0.35245514 -0.6608534 0.23129869 -0.16521335 0.48462582 -0.32491958 0.3359338 -0.4791187 0.088113785 -0.29738402 -0.40752625 -0.13767779 -0.3854978 -0.31941247 -0.14869201
000040 2e 83 9e 68 29 05 ba e4 16 4a ec 3b d3 f2 d1 5a
       -0.58926094 -0.121156454 0.027535558 -0.26984847 -0.6167965 -0.8150525 0.18173468 0.41303337 -0.7214316 -0.4350618 0.45709026 -0.5176685 0.31941247 0.49013293 0.30839825 -0.34694803
000050 df f7 b3 54 2a 7e e5 d9 c1 5d e1 31 36 47 53 85
       0.3854978 0.5176685 0.1431849 -0.3799907 -0.6112894 -0.14869201 0.41854048 0.35245514 0.22028446 -0.3304267 0.39651203 -0.5727396 -0.54520404 -0.45158315 -0.3854978 -0.11014223
000060 b3 a6 6a 01 1f 56 51 5e a4 ab e8 ff 89 be 91 ad
       0.1431849 0.07159245 -0.25883424 -0.83708096 -0.6718676 -0.36897647 -0.39651203 -0.32491958 0.060578227 0.09912801 0.4350618 0.5617254 -0.088113785 0.20376313 -0.044056892 0.11014223
000070 32 6e 26 c7 d2 b4 c0 dc f9 0c 44 74 c9 db 82 c4
       -0.5672325 -0.2368058 -0.6333178 0.25332713 0.31390536 0.14869201 0.21477735 0.36897647 0.5286827 -0.7765027 -0.46810448 -0.20376313 0.26434135 0.36346936 -0.12666357 0.2368058
000080 93 d6 45 c4 c7 b3 ce 41 a5 e5 ee 45 b0 76 24 c1
       -0.03304267 0.3359338 -0.46259737 0.2368058 0.25332713 0.1431849 0.2918769 -0.48462582 0.06608534 0.41854048 0.46810448 -0.46259737 0.12666357 -0.1927489 -0.64433205 0.22028446
000090 b1 6f af cf da 22 d2 d4 58 55 81 b4 63 c9 38 5a
       0.13217068 -0.23129869 0.121156454 0.29738402 0.35796225 -0.6553463 0.31390536 0.32491958 -0.35796225 -0.3744836 -0.13217068 0.14869201 -0.29738402 0.26434135 -0.5341898 -0.34694803
